…
Namespace(dataset_root='C:/Users/ADMIN/Desktop/new_test/OSCNN_splitted_datasets', iterations=100, img_up_bound=None, epochs=1000, workers=4, manual_seed=9857, arch='os_cnn', log_dir='./logs/5shot_os_cnn/', log_interval=20, test_interval=5, lr=0.001, lr_step=25, lr_gamma=0.7, momentum=0.9, weight_decay=1e-05, batch_size=128, classes_per_it_tr=None, num_support_tr=2, num_query_tr=2, classes_per_it_val=None, num_support_val=2, num_query_val=2, name_list=None, full_mode=False)
model:::
OS_CNN(
  (layer_list): ModuleList(
    (0): build_layer_with_layer_parameter(
      (padding): ConstantPad1d(padding=(11, 11), value=0)
      (conv1d): Conv1d(1, 100, kernel_size=(23,), stride=(1,))
      (bn): BatchNorm1d(100, eps=1e-05, momentum=0.1, affine=True, track_running_stats=True)
      (se): SEBlock(
        (se): Sequential(
          (0): AdaptiveAvgPool1d(output_size=1)
          (1): Conv1d(100, 25, kernel_size=(1,), stride=(1,), bias=False)
          (2): ReLU(inplace=True)
          (3): Conv1d(25, 100, kernel_size=(1,), stride=(1,), bias=False)
          (4): Sigmoid()
        )
      )
    )
    (1): build_layer_with_layer_parameter(
      (padding): ConstantPad1d(padding=(11, 11), value=0)
      (conv1d): Conv1d(100, 220, kernel_size=(23,), stride=(1,))
      (bn): BatchNorm1d(220, eps=1e-05, momentum=0.1, affine=True, track_running_stats=True)
      (se): SEBlock(
        (se): Sequential(
          (0): AdaptiveAvgPool1d(output_size=1)
          (1): Conv1d(220, 55, kernel_size=(1,), stride=(1,), bias=False)
          (2): ReLU(inplace=True)
          (3): Conv1d(55, 220, kernel_size=(1,), stride=(1,), bias=False)
          (4): Sigmoid()
        )
      )
    )
    (2): build_layer_with_layer_parameter(
      (padding): ConstantPad1d(padding=(0, 1), value=0)
      (conv1d): Conv1d(220, 200, kernel_size=(2,), stride=(1,))
      (bn): BatchNorm1d(200, eps=1e-05, momentum=0.1, affine=True, track_running_stats=True)
      (se): SEBlock(
        (se): Sequential(
          (0): AdaptiveAvgPool1d(output_size=1)
          (1): Conv1d(200, 50, kernel_size=(1,), stride=(1,), bias=False)
          (2): ReLU(inplace=True)
          (3): Conv1d(50, 200, kernel_size=(1,), stride=(1,), bias=False)
          (4): Sigmoid()
        )
      )
    )
  )
  (cnn_net): Sequential(
    (0): build_layer_with_layer_parameter(
      (padding): ConstantPad1d(padding=(11, 11), value=0)
      (conv1d): Conv1d(1, 100, kernel_size=(23,), stride=(1,))
      (bn): BatchNorm1d(100, eps=1e-05, momentum=0.1, affine=True, track_running_stats=True)
      (se): SEBlock(
        (se): Sequential(
          (0): AdaptiveAvgPool1d(output_size=1)
          (1): Conv1d(100, 25, kernel_size=(1,), stride=(1,), bias=False)
          (2): ReLU(inplace=True)
          (3): Conv1d(25, 100, kernel_size=(1,), stride=(1,), bias=False)
          (4): Sigmoid()
        )
      )
    )
    (1): build_layer_with_layer_parameter(
      (padding): ConstantPad1d(padding=(11, 11), value=0)
      (conv1d): Conv1d(100, 220, kernel_size=(23,), stride=(1,))
      (bn): BatchNorm1d(220, eps=1e-05, momentum=0.1, affine=True, track_running_stats=True)
      (se): SEBlock(
        (se): Sequential(
          (0): AdaptiveAvgPool1d(output_size=1)
          (1): Conv1d(220, 55, kernel_size=(1,), stride=(1,), bias=False)
          (2): ReLU(inplace=True)
          (3): Conv1d(55, 220, kernel_size=(1,), stride=(1,), bias=False)
          (4): Sigmoid()
        )
      )
    )
    (2): build_layer_with_layer_parameter(
      (padding): ConstantPad1d(padding=(0, 1), value=0)
      (conv1d): Conv1d(220, 200, kernel_size=(2,), stride=(1,))
      (bn): BatchNorm1d(200, eps=1e-05, momentum=0.1, affine=True, track_running_stats=True)
      (se): SEBlock(
        (se): Sequential(
          (0): AdaptiveAvgPool1d(output_size=1)
          (1): Conv1d(200, 50, kernel_size=(1,), stride=(1,), bias=False)
          (2): ReLU(inplace=True)
          (3): Conv1d(50, 200, kernel_size=(1,), stride=(1,), bias=False)
          (4): Sigmoid()
        )
      )
    )
  )
  (averagepool): AdaptiveAvgPool1d(output_size=1)
  (lstm): LSTM(1, 16, batch_first=True, bidirectional=True)
  (lstm_dropout): Dropout(p=0.5, inplace=False)
  (final_norm): LayerNorm((232,), eps=1e-05, elementwise_affine=True)
)
Train 0000 / 1000 Epoch, [LR=0.0010], [Need: 00:00:00]
[2026-05-22-19:50:33] train [Epoch=000/1000] [000/100] TIME[0.00 (0.00) 3.24 (3.24)] loss=(0.672, 0.672), acc@1=(50.0, 50.0) 

[2026-05-22-19:50:33] train [Epoch=000/1000] [020/100] TIME[0.00 (0.00) 0.01 (0.16)] loss=(0.472, 0.595), acc@1=(75.0, 75.0) 

[2026-05-22-19:50:33] train [Epoch=000/1000] [040/100] TIME[0.00 (0.00) 0.01 (0.09)] loss=(0.245, 0.473), acc@1=(100.0, 85.4) 
…
